…
Colocations handled automatically by placer.
WARNING:tensorflow:From C:\Users\rsotniko\PycharmProjects\tsa-server\venv\lib\site-packages\keras\backend\tensorflow_backend.py:3445: calling dropout (from tensorflow.python.ops.nn_ops) with keep_prob is deprecated and will be removed in a future version.
Instructions for updating:
Please use `rate` instead of `keep_prob`. Rate should be set to `rate = 1 - keep_prob`.
_________________________________________________________________
Layer (type)                 Output Shape              Param #   
=================================================================
embedding_1 (Embedding)      (None, 118, 128)          6400000   
_________________________________________________________________
spatial_dropout1d_1 (Spatial (None, 118, 128)          0         
_________________________________________________________________
conv1d_1 (Conv1D)            (None, 118, 32)           12320     
_________________________________________________________________
max_pooling1d_1 (MaxPooling1 (None, 59, 32)            0         
_________________________________________________________________
lstm_1 (LSTM)                (None, 124)               77872     
_________________________________________________________________
dense_1 (Dense)              (None, 1)                 125       
_________________________________________________________________
activation_1 (Activation)    (None, 1)                 0         
=================================================================
Total params: 6,490,317
Trainable params: 6,490,317
Non-trainable params: 0
_________________________________________________________________
None
Train...
WARNING:tensorflow:From C:\Users\rsotniko\PycharmProjects\tsa-server\venv\lib\site-packages\tensorflow\python\ops\math_ops.py:3066: to_int32 (from tensorflow.python.ops.math_ops) is deprecated and will be removed in a future version.
…
